…
 pipeline: strategy ----------
2025-04-17 22:45:09 - INFO - Start trading with reinforcement learning agent...
2025-04-17 22:45:09 - INFO - Data loaded from /Users/zxmath/Documents/GitHub/Erdos_Finance_LLM_Project/dataset/data_raw/stock_daily_data.db, extract ticker: AAPL
2025-04-17 22:45:10 - INFO - ==========================================================================================
Layer (type:depth-idx)                   Output Shape              Param #
==========================================================================================
Sequential                               [1, 3]                    --
├─Linear: 1-1                            [1, 256]                  8,960
├─ReLU: 1-2                              [1, 256]                  --
├─Linear: 1-3                            [1, 128]                  32,896
├─ReLU: 1-4                              [1, 128]                  --
├─Linear: 1-5                            [1, 64]                   8,256
├─Dropout: 1-6                           [1, 64]                   --
├─Linear: 1-7                            [1, 3]                    195
==========================================================================================
Total params: 50,307
Trainable params: 50,307
Non-trainable params: 0
Total mult-adds (Units.MEGABYTES): 0.05
==========================================================================================
Input size (MB): 0.00
Forward/backward pass size (MB): 0.00
Params size (MB): 0.20
Estimated Total Size (MB): 0.21
…
